MesoNet-Pytorch/weights/MesoInceptionNaive.pt (torch_old, 122918 bytes, 47 tensors)

inception_1_conv_1_1.weight f4 [1, 3, 1, 1]
0	0xbf0a8e65	-0.54123527
1	0xbe8d8b0f	-0.27645156
2	0x3f12337c	0.5710981

inception_1_conv_2_1.weight f4 [4, 3, 1, 1]
0	0xbf1dc0a6	-0.61622083
1	0x3e7302af	0.23731492
2	0x3ee154c0	0.44009972
3	0xbea00951	-0.31257108
4	0xbdabc85f	-0.08387827
5	0xbf073b32	-0.528247
6	0xbd9c3d70	-0.07628906
7	0xbd8749fd	-0.06605909
8	0xbef44f87	-0.47716925
9	0xbe72fab5	-0.2372845
10	0xbf02335f	-0.50859636
11	0x3e913cab	0.28366598

inception_1_conv_2_1.bias f4 [4]
0	0x3ef5a536	0.47977608
1	0xbee9c50f	-0.45658156
2	0x3ce07d90	0.027403623
3	0xbe407347	-0.18793975

inception_1_conv_2_2.weight f4 [4, 4, 3, 3]
0	0xbd96bab6	-0.07359831
1	0xbe1cf692	-0.15328434
2	0xbd082bc0	-0.03324485
3	0xbe0638c6	-0.13107595
4	0x3d994210	0.074833035
5	0xbd27d709	-0.040976558
6	0xbd8312d6	-0.06400077
7	0xbd0d9a9c	-0.034571275
8	0xbca710dd	-0.020393783
9	0xbe257944	-0.1615954
10	0x3da32021	0.079651125
11	0xbe224333	-0.15845947
12	0xbda0e986	-0.07857041
13	0xbd9a24f7	-0.07526582
14	0xbc9a177c	-0.018810026
15	0x3e1dbdd1	0.1540444
16	0x3cafdb9d	0.021467024
17	0xbe111a3e	-0.14170167
18	0xbd18056c	-0.037114546
19	0xbd4b8501	-0.04968739
20	0xbdea4f29	-0.1144088
21	0xbdff7f16	-0.124754116
22	0x3d741f0d	0.059599925
23	0x3b91822f	0.004440568
24	0xbdfd9876	-0.12382595
25	0x3dba6084	0.0910044
26	0x3c7b02c7	0.015320486
27	0x3d675ee0	0.056486964
28	0xbe01a38b	-0.12660043
29	0xbe0884fb	-0.13331978
30	0xbe251743	-0.16122155
31	0xbc95cc1f	-0.01828581
32	0xbd49cc29	-0.049266968
33	0x3d966548	0.073435366
34	0x3de4d060	0.11172557
35	0xbdd4c71c	-0.103895396
36	0xbe2813cb	-0.164138
37	0xbe7436a2	-0.23848966
38	0xbe13c8a5	-0.14432009
39	0x3e02fa88	0.12790883
40	0xbe3b1ed7	-0.18273483
41	0x3af58917	0.0018732873
42	0x3e30af94	0.17254478
43	0x3dc32510	0.095285535
44	0xbe391277	-0.1807345
45	0x3d681d41	0.056668524
46	0xbe12dc45	-0.14341839
47	0xbddb4a82	-0.107075706
48	0xbd8c8dea	-0.068630055
49	0x3ded2b2b	0.11580499
50	0x3e2503c6	0.1611472
51	0x3e4ec7f8	0.2019347
52	0x3da73471	0.08164299
53	0xbc192c78	-0.009348981
54	0x3dabebe6	0.083946034
55	0xbd575b38	-0.052577227
56	0xbc185160	-0.009296745
57	0x3e5a0b75	0.21293433
58	0x3d9f31fd	0.077732064
59	0xbe472291	-0.1944678
60	0xbdc1d82b	-0.09465059
61	0x3de627e8	0.1123808
62	0x3e18ad94	0.14909965
63	0x3e3f1c57	0.18663155
64	0xbda01b73	-0.078177355
65	0x3e04643b	0.1292886
66	0x3c933fac	0.017974697
67	0xbd02a9c0	-0.031900167
68	0xbcb6a878	-0.022297129
69	0xbcd1169b	-0.025523474
70	0x3d9469a9	0.072467156
71	0xbe25d5f1	-0.16194893
72	0xbd6db0e6	-0.05803003
73	0x3db39fc2	0.08770706
74	0xbe00064a	-0.12502399
75	0x3d912826	0.07087736
76	0xbd1241c4	-0.03570725
77	0x3d89dc2e	0.06731449
78	0xbe14bd1b	-0.14525263
79	0xba7ce800	-0.0009647608
80	0x3c4ae190	0.01238288
81	0xbd8e9286	-0.06961541
82	0x3d0b0b90	0.033946574
83	0xbd8f9e23	-0.07012584
84	0x3ded2d56	0.11580913
85	0x3d0b60cc	0.03402786
86	0xbd803b68	-0.06261331
87	0xbe212143	-0.15735345
88	0x3e1164c1	0.14198591
89	0x3d2351c0	0.039872885
90	0xbe26ff4f	-0.1630833
91	0xbc04bd30	-0.008101746
92	0xbd188400	-0.03723526
93	0x3d649d7c	0.05581425
94	0xbdc3298e	-0.0952941
95	0xbd5f10ac	-0.05445926
96	0xbcdb52c8	-0.026772872
97	0x3d92ca26	0.07167463
98	0xbe076b8f	-0.13224624
99	0x3e1ab239	0.15107049
100	0xbe25c437	-0.16188131
101	0x3b5f3740	0.0034060031
102	0x3c75f650	0.015012339
103	0xbc224ed0	-0.009906486
104	0x3d858958	0.06520337
105	0x3dc1bada	0.09459467
106	0x3cd429b8	0.0258988
107	0xbd43a340	-0.04776311
108	0xbd95166a	-0.07279666
109	0xbe0bba35	-0.13645251
110	0xbd2bb5f5	-0.041921575
111	0xbda1052d	-0.07862315
112	0x3d5b71fa	0.053575493
113	0xbe1f55a4	-0.15560013
114	0xbde4f732	-0.11179961
115	0xbdfd960f	-0.12382137
116	0xbdee08c2	-0.11622764
117	0xbcc4c845	-0.024021277
118	0x3da9c412	0.082893506
119	0xbe743299	-0.23847426
120	0x3dc62ed6	0.09676902
121	0xbe21d12b	-0.15802447
122	0xbe7d3b22	-0.24729589
123	0xbe5e23ff	-0.21693419
124	0xbdebcdd7	-0.1151387
125	0xbca39eeb	-0.019973239
126	0x3dccc3be	0.09998272
127	0x3d58648b	0.05283026
128	0x3de0fa53	0.109852456
129	0x3dafb5d7	0.08579605
130	0x3e12aece	0.14324495
131	0xbcd442ad	-0.0259107
132	0xbd843eaf	-0.064572684
133	0xbdc5bd33	-0.096552275
134	0xbe45b0a5	-0.19305666
135	0x3e89ccf7	0.26914188
136	0x3e638b3f	0.22221087
137	0x3e2d1a5c	0.16904587
138	0x3e4d782e	0.20065376
139	0x3d80c2c8	0.062871516
140	0x3c4b41c1	0.012405814
141	0xbdba28fc	-0.090898484
142	0x3cfc6438	0.030809507
143	0xbe73e45e	-0.23817584

inception_1_conv_2_2.bias f4 [4]
0	0xbdc448fa	-0.09584232
1	0x3e9725a4	0.29520905
2	0xbdd66550	-0.104685426
3	0x3c5737e9	0.013135889

inception_1_conv_3_1.weight f4 [4, 3, 1, 1]
0	0xbef17325	-0.4715816
1	0xbe8a6cf1	-0.2703624
2	0xbf0e1aec	-0.5550983
3	0xbdafa958	-0.08577222
4	0xbde4fdd4	-0.111812264
5	0x3eee1d28	0.4650662
6	0x3f074a22	0.5284749
7	0xbe75a7af	-0.23989747
8	0x3f048b7e	0.5177535
9	0xbeeeeae9	-0.46663597
10	0xbf0d5aa3	-0.55216426
11	0x3ed7bdfe	0.4213714

inception_1_conv_3_1.bias f4 [4]
0	0x3f02c143	0.51076144
1	0xbf0ea776	-0.55724275
2	0xbe5727bc	-0.21011251
3	0xbec93b4c	-0.39303052

inception_1_conv_3_2.weight f4 [4, 4, 3, 3]
0	0xbe3d0951	-0.18460585
1	0xbe0be71f	-0.13662384
2	0xbe124d5f	-0.14287327
3	0x3bd49d33	0.006488466
4	0xbe48d8e1	-0.19613983
5	0x39a9139a	0.00032248796
6	0xbd829bc2	-0.06377365
7	0xbe39b03e	-0.18133637
8	0x3d1aa238	0.03775236
9	0x3cdb2348	0.026750222
10	0xbd58e520	-0.052952886
11	0xbd9eb680	-0.07749653
12	0x3e0ee25b	0.13953535
13	0x3d2d7750	0.042350113
14	0xbe28c764	-0.16482311
15	0xbe17792f	-0.14792322
16	0x3df67cfe	0.12035559
17	0xbda153c6	-0.07877307
18	0xbdfae7c6	-0.122512385
19	0xbe2703bf	-0.16310023
20	0xbe2f8b9b	-0.17143099
21	0x3df0483f	0.1173253
22	0x3cf9f921	0.030514302
23	0x3e1408ce	0.14456484
24	0x3e21c536	0.15797886
25	0x3c273d34	0.010207463
26	0x3cb63ec4	0.022246726
27	0x3dd6371a	0.104597285
28	0x3c36e419	0.011162781
29	0x3d400958	0.04688391
30	0x3d173fe9	0.036926184
31	0xbd9d1844	-0.07670644
32	0x3d1484e4	0.036259547
33	0x3a975979	0.0011547051
34	0x3e117afc	0.14207071
35	0x3cf960b3	0.030441618
36	0xbe8cd778	-0.2750814
37	0x3da4a2f8	0.08038896
38	0xbe6470dd	-0.22308679
39	0x3e220ff4	0.15826398
40	0x3d442608	0.047887832
41	0xbd0a95f7	-0.033834424
42	0x3e20cc3e	0.15702912
43	0x3df6cec3	0.120511554
44	0x3e16a7ea	0.14712492
45	0xbc8906e8	-0.016726926
46	0xbdb18a6b	-0.08668979
47	0xbd0a2a30	-0.03373164
48	0xbdf23ff8	-0.11828607
49	0x3dee0c1a	0.11623402
50	0xbdf6ca66	-0.12050323
51	0x3e1f4a4d	0.15555687
52	0xbdbfd9f6	-0.093677446
53	0x3aef8f80	0.0018277019
54	0xbe12f238	-0.14350212
55	0x3daaf53d	0.08347557
56	0x3ded7065	0.11593703
57	0xbc686b63	-0.014185759
58	0x3d8c9071	0.068634875
59	0x3dcf14e6	0.10111408
60	0xbd30558c	-0.043050334
61	0xbc41b1e8	-0.011822201
62	0x3e3edee7	0.18639718
63	0xbe01b9bd	-0.1266851
64	0xbe74a017	-0.23889194
65	0x3dab7b88	0.08373171
66	0x3da19160	0.07889056
67	0x3dd022f2	0.10162915
68	0x3db15652	0.086590424
69	0x3e2e1ee4	0.17003971
70	0x3e06dafa	0.1316947
71	0x3e8e6feb	0.27819762
72	0xbe69a091	-0.22815157
73	0x3e0b8b7c	0.13627428
74	0xbb51c5f2	-0.0032008854
75	0xbc82941f	-0.01593977
76	0xbd302cf6	-0.043011628
77	0x3d876804	0.06611636
78	0xbe43a966	-0.19107589
79	0x3c1e819a	0.009674454
80	0x3dda59ca	0.10661657
81	0x3e20c8a3	0.15701537
82	0xbe1b9ed6	-0.1519731
83	0xbe0682f0	-0.13135886
84	0x3ddf754a	0.10911043
85	0xbd8765f3	-0.06611242
86	0xbde0b47e	-0.10971926
87	0xbd9b5bde	-0.07585882
88	0xb8ec5800	-0.00011269748
89	0xbdf9cdb3	-0.12197437
90	0x3c8932af	0.0167478
91	0x3d85b358	0.06528348
92	0xbddb1384	-0.10697082
93	0xbdbe102c	-0.09280428
94	0x3d8c001f	0.068359606
95	0x3d3d26ee	0.046179704
96	0x3e08e982	0.13370326
97	0xbe09c0b4	-0.13452417
98	0xbe6636a0	-0.22481775
99	0x3d97216f	0.07379424
100	0xbddaedf9	-0.10689921
101	0x3d5472b5	0.051867206
102	0xbc979b33	-0.018506622
103	0xbe9b8269	-0.30372933
104	0xbe14c5b8	-0.14528549
105	0x3d0d982c	0.03456895
106	0xbea34f36	-0.3189637
107	0xbdf5803e	-0.11987351
108	0xbe53331a	-0.20624962
109	0xbd0d1857	-0.03444704
110	0xbe45486f	-0.19265912
111	0xbe4a6fe8	-0.19769251
112	0x3d7c2299	0.061556432
113	0xbe1c7222	-0.15277913
114	0x3cd5fbb1	0.026120992
115	0x3d4bdf8a	0.04977373
116	0xbe87f878	-0.26556754
117	0xbc20d8f0	-0.009817347
118	0xbdbd0960	-0.09230304
119	0x3c5c70d0	0.013454631
120	0x3e0b96ad	0.13631697
121	0x3d6b268c	0.057409808
122	0x3d22041c	0.0395547
123	0x3d3ab4dc	0.045582637
124	0xbc3a28b0	-0.01136224
125	0x3ce23e68	0.027617648
126	0xbe543605	-0.20723732
127	0xbe4d7748	-0.20065033
128	0x3db75706	0.08952145
129	0x3dbfd714	0.09367195
130	0xbe6218af	-0.22079729
131	0x3d87937a	0.06619926
132	0xbd8df1a1	-0.06930853
133	0xbde96d19	-0.11397762
134	0xbd50d5dd	-0.050985206
135	0xbdd0f1a3	-0.102023385
136	0x3e319102	0.17340472
137	0x3df27b89	0.11839969
138	0x3e17b52b	0.14815204
139	0xbd3e8480	-0.04651308
140	0x3d9a1976	0.075243875
141	0xbdfd6f8d	-0.12374792
142	0x3d9acfb0	0.075591445
143	0x3c46fe52	0.012145596

inception_1_conv_3_2.bias f4 [4]
0	0xbdb04413	-0.08606734
1	0xbd5a6bf5	-0.053325612
2	0xbe15c656	-0.1462644
3	0x3d3982f8	0.045290917

inception_1_conv_4_1.weight f4 [2, 3, 1, 1]
0	0x3d908e94	0.070584446
1	0x3e33b669	0.17550053
2	0x3eceaff8	0.40368629
3	0x3efc3515	0.49259248
4	0xbde87445	-0.11350302
5	0x3e3470a7	0.17621098

inception_1_conv_4_1.bias f4 [2]
0	0x3f2744a4	0.6533911
1	0xbea54001	-0.32275394

inception_1_conv_4_2.weight f4 [2, 2, 3, 3]
0	0x3db3f2b9	0.0878653
1	0xbe5f508b	-0.21808068
2	0x3d64086d	0.055672098
3	0xbcfad3b2	-0.030618522
4	0xbd817750	-0.06321585
5	0xbc20dfb3	-0.009818959
6	0x3d1f0fd1	0.038833443
7	0xbe8056de	-0.25066274
8	0xbe04b9a8	-0.12961447
9	0xbd7b9401	-0.061420444
10	0xbe1a8b1f	-0.15092133
11	0xbd0b6397	-0.034030523
12	0xbe3082d8	-0.17237413
13	0x3ce5424e	0.027985718
14	0xbdfb88a2	-0.1228192
15	0x3e3e0151	0.1855519
16	0xbd864d6a	-0.06557734
17	0x3e845b80	0.2585106
18	0x3de693fd	0.11258695
19	0xbeb85502	-0.36002356
20	0x3e5e8daa	0.21733728
21	0xbd9f662a	-0.07783158
22	0x3bb98eed	0.00566279
23	0x3de651b0	0.112460494
24	0x3d8d6246	0.0690351
25	0xbd750135	-0.059815604
26	0xbc90442b	-0.01761063
27	0x3e9fa4b8	0.31180358
28	0xbded2d9f	-0.11580967
29	0xbe1e3bda	-0.15452519
30	0xbe28c4b2	-0.16481283
31	0xbe533e82	-0.20629314
32	0x3e41a696	0.18911204
33	0x3dc612d6	0.096715614
34	0x3ce560b5	0.028000215
35	0xbdf87c51	-0.121330865

inception_1_conv_4_2.bias f4 [2]
0	0xbdf495c2	-0.119426265
1	0x3cd4307f	0.025902031

bn_1.weight f4 [11]
0	0x3f6f4a0d	0.9347237
1	0x3f80ef59	1.0073043
2	0x3f763b4f	0.9618425
3	0x3f800000	1.0
4	0x3f3a6272	0.72806466
5	0x3f4dee2e	0.8044156
6	0x3f897feb	1.0742162
7	0x3f6523a2	0.89507496
8	0x3f6388e8	0.8888078
9	0x3f7e613a	0.99367106
10	0x3fb0e0eb	1.381864

bn_1.bias f4 [11]
0	0x3cc86604	0.024462707
1	0xbb3d8b8d	-0.002892229
2	0xbd4d8029	-0.05017105
3	0xbd589222	-0.052873738
4	0x3cffe322	0.031236235
5	0x3d6b6f77	0.057479348
6	0xbc92a42c	-0.017900549
7	0x3d2f86ec	0.04285328
8	0xbcaceafe	-0.021108147
9	0xb8a50b40	-7.8699086e-05
10	0xbd3eabba	-0.04655049

bn_1.running_mean f4 [11]
0	0x3f0f36ae	0.5594281
1	0x00000004	6e-45
2	0x3e672782	0.22573665
3	0x00000000	0.0
4	0x39cac105	0.00038672253
5	0x38642140	5.4390403e-05
6	0x3dfbdc46	0.12297873
7	0x3a4b1e1f	0.0007748324
8	0x371b7694	9.266329e-06
9	0x00000004	6e-45
10	0x3cdd52d3	0.027017033

bn_1.running_var f4 [11]
0	0x3ce90aa2	0.028447453
1	0x00000004	6e-45
2	0x3c4c71b7	0.012478284
3	0x00000004	6e-45
4	0x381e1346	3.7688085e-05
5	0x36ba33df	5.5492706e-06
6	0x3c633b71	0.013869152
7	0x39030da2	0.00012498212
8	0x34e318c3	4.230006e-07
9	0x00000004	6e-45
10	0x3994b553	0.00028363857

inception_2_conv_1_1.weight f4 [2, 11, 1, 1]
0	0xbed05028	-0.40686154
1	0xbd47bcd0	-0.04876405
2	0xbe35adc7	-0.17742072
3	0xbeab4bea	-0.33456355
4	0x3d57798f	0.05260616
5	0x3e2e8205	0.17041786
6	0xbc9df5af	-0.01928219
7	0xbdf43a77	-0.11925214
8	0x3e419cce	0.18907472
9	0xbcd600be	-0.0261234
10	0xbe6dee9d	-0.23235555
11	0x3cf8db88	0.030378118
12	0xbd93c1f0	-0.07214725
13	0xbe9d62bb	-0.30739388
14	0x3e09d09e	0.13458487
15	0xbd0b1e8d	-0.033964682
16	0x3e0077f4	0.12545758
17	0x3ea30abf	0.31844136
18	0xbe437bba	-0.19090167
19	0xbd98cd61	-0.07461048
20	0x3c71f7d1	0.014768557
21	0xbd6f8439	-0.058475707

inception_2_conv_1_1.bias f4 [2]
0	0xbe20db1b	-0.15708582
1	0x3cb72165	0.022354791

inception_2_conv_2_1.weight f4 [4, 11, 1, 1]
0	0x3e2ada0e	0.16684744
1	0xbe354f50	-0.17706037
2	0xbbcab36a	-0.0061859386
3	0xbcbf1d5a	-0.023329426
4	0xbd78011e	-0.06054794
5	0xbbdf660c	-0.006817585
6	0x3d8f08fd	0.06984136
7	0xbe2116db	-0.15731375
8	0xbe7bd770	-0.24593902
9	0xbd7907d9	-0.0607985
10	0x3ef022de	0.46901602
11	0x3e186e48	0.14885819
12	0x3d728b26	0.059214734
13	0xbe501508	-0.20320523
14	0x3e30166b	0.17196052
15	0x3b9f69d8	0.0048649125
16	0x3dfecf6d	0.12441907
17	0xbd7d97ea	-0.061912455
18	0xbdb44481	-0.088021286
19	0x3d039124	0.03212084
20	0xbce5ca99	-0.028050708
21	0x3ea37646	0.31926173
22	0x3e20b415	0.15693696
23	0xbe284c7b	-0.16435425
24	0x3d51e88a	0.051247157
25	0xbe5fc775	-0.2185343
26	0xbae21dbf	-0.0017251297
27	0x3e2ed428	0.17073119
28	0xbdb78369	-0.089606114
29	0x3d322397	0.043490972
30	0xbe0e9b6d	-0.13926478
31	0x3cafda19	0.021466302
32	0xbef97956	-0.48725384
33	0xbdbd116b	-0.09231838
34	0xbd457349	-0.048205648
35	0x3b0e680f	0.0021729504
36	0x3e9a45d0	0.30131388
37	0xbdbff061	-0.093720205
38	0xbc8a6484	-0.016893633
39	0x3c2b9bd4	0.010474164
40	0x3e1c88b6	0.15286526
41	0x3bf1d9ba	0.0073806914
42	0xba358ad4	-0.0006925289
43	0xbe173979	-0.14768018

inception_2_conv_2_1.bias f4 [4]
0	0xbdcd7065	-0.10031203
1	0x3e2b105e	0.16705462
2	0x3e29c795	0.16580041
3	0xbd127c8d	-0.035763312

inception_2_conv_2_2.weight f4 [4, 4, 3, 3]
0	0x3e596710	0.21230721
1	0xbe8efb26	-0.27925986
2	0x3e0f309e	0.1398339
3	0xbcf9720a	-0.030449886
4	0x3bd2e4db	0.006435973
5	0x3dbe594f	0.09294378
6	0xbaef7a52	-0.0018270707
7	0x3da7bd1e	0.08190368
8	0xbe377f7e	-0.17919728
9	0x3d037c1f	0.032100793
10	0xbe9b98de	-0.30390066
11	0x3d9f639f	0.07782673
12	0xbdec5845	-0.115402736
13	0x3d49a5cb	0.049230378
14	0x3e3b07ac	0.18264645
15	0x3da3de79	0.08001418
16	0xbe109f6e	-0.14123318
17	0xbe1ff944	-0.15622431
18	0xbe32afc8	-0.17449868
19	0x3e95263c	0.29130733
20	0xbe092483	-0.13392834
21	0x3c2524a5	0.0100795375
22	0x3e01946e	0.12654278
23	0xbe00aeca	-0.12566677
24	0x3da74382	0.08167173
25	0xbe5abaa0	-0.21360254
26	0x3d4fcf5e	0.05073487
27	0xbc5a67e4	-0.0133304335
28	0x3d78b1dd	0.0607165
29	0xbd82ca48	-0.06386238
30	0x3e26d1f1	0.16291024
31	0x3d199229	0.037492905
32	0x3defa0d8	0.117006004
33	0x3b049d27	0.0020235272
34	0xbe391be9	-0.18077053
35	0x3de2ed1d	0.11080382
36	0x3d1d392c	0.0383846
37	0x3e5c906a	0.21539465
38	0x3e516df4	0.204521
39	0xbda51b45	-0.08061842
40	0x3da7123b	0.08157774
41	0xbc2d02cf	-0.010559752
42	0xbe10a3a1	-0.1412492
43	0xbe3b047a	-0.18263426
44	0xbdec8b58	-0.11550015
45	0x3e20ab99	0.1569046
46	0xbc4ba07a	-0.012428397
47	0x3da2f54b	0.07956942
48	0xbb2d3607	-0.0026429908
49	0xbdd6b8a6	-0.10484438
50	0x3c0c1c55	0.008551677
51	0xbe08f1d2	-0.13373497
52	0xbd832b6e	-0.06404768
53	0x3dc8e690	0.09809601
54	0xbdb745a2	-0.08948828
55	0xbe57e12c	-0.2108199
56	0xbd5e4fb0	-0.054275215
57	0xbdbae5e2	-0.09125878
58	0xbd9652bb	-0.07339998
59	0x3d74fc0c	0.059810683
60	0x3dba5bd9	0.0909955
61	0x3d94f012	0.07272352
62	0x3df45bce	0.11931573
63	0xbcb1c1bd	-0.021698827
64	0xbdfa386b	-0.12217792
65	0xbc449362	-0.011998029
66	0xbe19d1dd	-0.15021463
67	0x3e0a8d95	0.13530572
68	0x3e295d8b	0.1653959
69	0x3dba010b	0.0908223
70	0x3df50572	0.11963929
71	0x3e4ef08a	0.20208946
72	0xbd637d26	-0.055539273
73	0x3e30cbf4	0.17265302
74	0xbe3864f3	-0.18007259
75	0xbd80576e	-0.06266676
76	0xbd3c26fc	-0.045935616
77	0xbd8ec57c	-0.06971261
78	0x3e4643d2	0.19361809
79	0xbd57b818	-0.0526658
80	0x3db17bbb	0.08666178
81	0x3d916b7d	0.0710058
82	0xbd28e7be	-0.04123663
83	0xbd47500e	-0.04866033
84	0xbe7a327c	-0.24433321
85	0xbdfcf984	-0.12352279
86	0x3b82b0da	0.0039883675
87	0x3e3fa18c	0.18713969
88	0x3c008629	0.007844486
89	0xbe4916c9	-0.19637598
90	0xbe51dd50	-0.2049458
91	0xbe355bd6	-0.17710814
92	0x3abda8f9	0.0014469913
93	0xbe20ac92	-0.1569083
94	0x3da1b777	0.07896321
95	0x3d28f698	0.041250795
96	0xbe41e6a8	-0.18935645
97	0xbe02e8b6	-0.12784085
98	0x3e17c9fd	0.14823146
99	0x3dc68647	0.0969358
100	0xbb3754bd	-0.0027974092
101	0xbdc3b155	-0.09555308
102	0x3da594a4	0.080849916
103	0xbe2fe21f	-0.17176102
104	0xbe06299c	-0.1310181
105	0xbd950514	-0.07276359
106	0xbb701e6d	-0.003663923
107	0xbdd1795c	-0.102282256
108	0x3e1a33b7	0.1505879
109	0xbde02dc2	-0.109462276
110	0xbe4c54dc	-0.19954246
111	0xbd8439e7	-0.064563565
112	0xbe59bdb2	-0.2126377
113	0x3e5893f7	0.21150194
114	0x3d57b934	0.052666858
115	0xbe321e3b	-0.17394345
116	0xbd47f9bb	-0.048822146
117	0x3de734b2	0.11289348
118	0x3dab1614	0.083538204
119	0xbe37dc9e	-0.17955253
120	0x3e162a4e	0.14664575
121	0xbe3c779a	-0.18405
122	0x3e229ab9	0.15879335
123	0xbdec7836	-0.11546366
124	0xbe3f9644	-0.18709666
125	0x3e43dcb5	0.19127162
126	0xbd7bbca9	-0.061459217
127	0xbd8932de	-0.06699155
128	0x3e1d5afe	0.15366742
129	0xbd067d63	-0.03283442
130	0x3d89e63a	0.06733365
131	0x3cd93bfb	0.026517859
132	0xbe4e1832	-0.20126417
133	0x3d962fca	0.07333334
134	0x3da11756	0.07865779
135	0x3d884c56	0.06655185
136	0xbd09a54c	-0.033604905
137	0xbddcf7c1	-0.10789443
138	0xbd9e18ad	-0.0771955
139	0xbe035486	-0.12825212
140	0x3cfaed96	0.030630868
141	0xbdccb3e5	-0.0999525
142	0x3b332f6c	0.0027341498
143	0xbe1113c8	-0.14167702

inception_2_conv_2_2.bias f4 [4]
0	0xbc8a3b61	-0.016874017
1	0xbe5ef78e	-0.21774122
2	0x3de1f14c	0.11032352
3	0xbcdf04c1	-0.027223947

inception_2_conv_3_1.weight f4 [4, 11, 1, 1]
0	0x3d2c7a53	0.042108845
1	0x3d3f18a6	0.046654366
2	0xbd2d2019	-0.04226694
3	0xbe0ac4f7	-0.13551699
4	0xbe5f4ad2	-0.21805885
5	0x3dee9420	0.11649346
6	0x3e991439	0.2989824
7	0xbe08d076	-0.13360772
8	0xbe1cbb92	-0.15305927
9	0xb9f28742	-0.00046258612
10	0xbe5781f5	-0.21045668
11	0xbe286035	-0.1644295
12	0x3d2bd446	0.041950487
13	0xbea408f9	-0.32038096
14	0xbe97fa08	-0.29682946
15	0xbe033d7e	-0.12816426
16	0xbd8fdd45	-0.07024626
17	0xbeb5b780	-0.35491562
18	0x3e7ec0a2	0.24878171
19	0x3e016901	0.12637712
20	0xbbc141b5	-0.0058977255
21	0x3e784196	0.24243769
22	0x3e3a2b7d	0.18180652
23	0xbe0fca57	-0.1404203
24	0x3cc08176	0.023499232
25	0x3ec848af	0.39117953
26	0x3d88fc91	0.06688798
27	0xbc227159	-0.0099147195
28	0x3e83a7ba	0.25713903
29	0xbe91f214	-0.28505003
30	0x3e32b567	0.17452012
31	0xbc83c6ef	-0.01608607
32	0x3e1a2240	0.15052128
33	0xbea8eac4	-0.32991612
34	0xbd9f51cc	-0.077792734
35	0x3e871768	0.26385045
36	0x3dee4f96	0.116362736
37	0x3e287c54	0.16453677
38	0x3d91d164	0.07120016
39	0x3e00b711	0.12569834
40	0xbd47da32	-0.04879207
41	0xbd93badc	-0.07213375
42	0xbc15be72	-0.009139644
43	0x3d86264b	0.065502726

inception_2_conv_3_1.bias f4 [4]
0	0x3d944fcf	0.07241785
1	0x3e3a2214	0.18177062
2	0xbeb4ad2c	-0.3528837
3	0xbd1951dd	-0.037431587

inception_2_conv_3_2.weight f4 [4, 4, 3, 3]
0	0xbe385344	-0.18000513
1	0x3dc85fcc	0.09783897
2	0x3d3696b9	0.044577334
3	0xbe867a07	-0.26264974
4	0x3b519c6d	0.0031984106
5	0xbdea3743	-0.114363216
6	0xbc8f284a	-0.017475266
7	0x3cfb8da5	0.03070719
8	0x3c569d7d	0.013099072
9	0xbdecf026	-0.11569242
10	0x3d54e1b9	0.05197308
11	0xbce7e34d	-0.028306628
12	0xbe63908d	-0.2222311
13	0xbe7259a6	-0.2366701
14	0xbdbcffba	-0.092284635
15	0xbdbdc52a	-0.09266122
16	0x3e627726	0.22115764
17	0x3da1e8c3	0.07905724
18	0x3e60f315	0.21967728
19	0xbd0b9a6a	-0.034082808
20	0x3d57c8d8	0.052681774
21	0xbcf2dd1d	-0.02964645
22	0x3d83bb92	0.064322606
23	0xbd91391f	-0.07090973
24	0xbc08e671	-0.008355723
25	0xbe449697	-0.1919807
26	0xbbc0019e	-0.005859568
27	0xbe2e750d	-0.17036839
28	0xbcb030d9	-0.021507667
29	0xbe38b7d8	-0.18038881
30	0x3c424e85	0.011859541
31	0x3e82e022	0.25561625
32	0xbe12992e	-0.14316246
33	0xbe607d13	-0.21922712
34	0x3e13a8b0	0.14419818
35	0x3d0cbc93	0.034359526
36	0x3e15f48b	0.14644067
37	0x3deadd07	0.11467939
38	0x3d426fe4	0.04746999
39	0x3e10fdfd	0.14159389
40	0x3b93c2cf	0.004509307
41	0xbcf5fc50	-0.030027539
42	0xbe6c3dc4	-0.23070437
43	0xbe588550	-0.21144605
44	0x3d5ef2fb	0.054430943
45	0x3de26111	0.1105367
46	0x3d44da5b	0.048059803
47	0x3e10ec03	0.14152531
48	0xbe267b20	-0.16257906
49	0xbe4f9059	-0.20269908
50	0xbe80755e	-0.25089544
51	0x3e7fe827	0.24990903
52	0x3e067040	0.13128757
53	0xbd9d2747	-0.07673507
54	0xbdc69a85	-0.09697441
55	0x3d7b1d12	0.06130702
56	0x3cb16dfb	0.021658888
57	0x3e0cffa7	0.13769399
58	0x3e5df33f	0.21674822
59	0x3c8ecea9	0.017432528
60	0xbe62f28b	-0.22162835
61	0xbdd72c35	-0.10506479
62	0xbcb45503	-0.022013193
63	0x3e32434a	0.17408481
64	0x3e0ca7d7	0.13735901
65	0xbd4179b9	-0.047235224
66	0x3c06ebd3	0.008234936
67	0xbdc0b582	-0.0940962
68	0x3d04fdbb	0.03246854
69	0x3b6748ae	0.0035291123
70	0xbe532ce3	-0.20622592
71	0xbd3877be	-0.04503607
72	0xbe79e6f4	-0.24404508
73	0x3aa42850	0.0012524221
74	0x3df00dad	0.117213584
75	0xbe95c52d	-0.29251996
76	0xbcc9cf64	-0.024635024
77	0xbe2ebf53	-0.17065172
78	0xbd6b0cbb	-0.057385188
79	0x3d860baf	0.06545197
80	0xbe483b01	-0.19553758
81	0xbdd69d92	-0.10479273
82	0xbc6df9bf	-0.014524876
83	0xbe17f473	-0.14839344
84	0x3dbd1f05	0.09234432
85	0x3dff5b2b	0.12468561
86	0xbe5acbb0	-0.21366763
87	0x3e03d3d3	0.12873773
88	0xbc38b852	-0.011274414
89	0xbda6d251	-0.081455834
90	0xbdf4e289	-0.11957271
91	0x3cc12413	0.023576772
92	0xbea6e0f9	-0.32593516
93	0xbc58cb58	-0.013232075
94	0xbda1caa4	-0.07899979
95	0x3e36a158	0.17834985
96	0x3c83dce2	0.016096536
97	0x3e48527c	0.19562715
98	0xbc4b4cb7	-0.012408427
99	0x3ddbd9e7	0.10734921
100	0xbde4f489	-0.11179454
101	0xbe4cef3d	-0.20013137
102	0x3e559d29	0.20860733
103	0xbe188ecd	-0.14898224
104	0x3d7d28ca	0.061806478
105	0x3e1dfd12	0.1542857
106	0x3e027d1a	0.12743035
107	0xbde3fab3	-0.111318015
108	0x3db20a56	0.08693378
109	0x3e3e5a54	0.18589145
110	0x3e009d63	0.12560038
111	0xbdd30625	-0.10303906
112	0xbd86a45f	-0.0657432
113	0x3d870165	0.06592063
114	0x3dfb3d2c	0.12267527
115	0xbe512d6e	-0.20427486
116	0xbd1e2e7c	-0.03861855
117	0x3cbe0ab4	0.023198463
118	0xbb9516d3	-0.00454984
119	0x3e0fd19a	0.140448
120	0x3ce53607	0.027979864
121	0x3e35a222	0.1773763
122	0x3da269be	0.07930325
123	0xbe3292b8	-0.17438781
124	0x3c87a066	0.016555976
125	0xbd8bba16	-0.068226025
126	0x3cf9449f	0.030428229
127	0x3e50e2cb	0.20399015
128	0x3e90723f	0.28212163
129	0xbe137ee6	-0.14403877
130	0x3cdc8c73	0.02692244
131	0x3da00cd0	0.07814944
132	0xbd9b609d	-0.07586787
133	0x3e710b16	0.23539385
134	0xbe5581fd	-0.20850368
135	0xbea85e10	-0.32884264
136	0xbe26b201	-0.1627884
137	0xbe22e7f3	-0.15908794
138	0xbe2d91e4	-0.16950184
139	0xbeadee9d	-0.3397111
140	0xbce936df	-0.028468547
141	0x3c3648bf	0.011125742
142	0x3e08edf5	0.13372023
143	0xbd845b3c	-0.06462714

inception_2_conv_3_2.bias f4 [4]
0	0xbd96b24d	-0.07358227
1	0xbd9c594c	-0.076342195
2	0x3df2aca9	0.118493386
3	0xbd3d7cbe	-0.04626154

inception_2_conv_4_1.weight f4 [2, 11, 1, 1]
0	0xbe9357aa	-0.2877782
1	0x3e9b7087	0.3035929
2	0xbcd0407f	-0.02542138
3	0x3e8214fe	0.2540664
4	0x3cd22cd7	0.025656147
5	0x3dcc8b59	0.09987516
6	0x3d980eb2	0.07424678
7	0xbe9a9624	-0.30192673
8	0x3d127569	0.035756502
9	0x3d74bb7e	0.05974912
10	0x3eb78461	0.35843185
11	0x3d9408ab	0.07228216
12	0xbd4adc1e	-0.049526326
13	0x3e13e5c1	0.14443113
14	0xbe209a6f	-0.15683912
15	0x3e2e69e9	0.17032589
16	0x3e38c6fe	0.1804466
17	0x3e9d68cc	0.30744016
18	0xbc198d18	-0.009372018
19	0x3e0d6f75	0.13812049
20	0x3e0d2c27	0.13786374
21	0x3e6135f3	0.21993236

inception_2_conv_4_1.bias f4 [2]
0	0xbe4edb19	-0.20200767
1	0x3e442018	0.19152868

inception_2_conv_4_2.weight f4 [2, 2, 3, 3]
0	0x3def12a4	0.11673477
1	0xbea1da36	-0.31611794
2	0xbe867a42	-0.2626515
3	0x3df3abe4	0.1189802
4	0x3e2eba34	0.17063218
5	0xbdda2323	-0.10651233
6	0xbd6022d8	-0.05472073
7	0x3e0d47e7	0.1379696
8	0x3e57ba41	0.21067144
9	0xbda5dc67	-0.08098679
10	0x3e91fbea	0.28512508
11	0x3d1ff649	0.039053235
12	0x3e15c17d	0.14624591
13	0x3d08b11e	0.033372037
14	0xbec2f2dd	-0.38075915
15	0x3e15b8e8	0.14621317
16	0xbe1b4ebc	-0.15166754
17	0xbd4feb53	-0.050761532
18	0x3e734dc8	0.2376014
19	0xbeb0432b	-0.34426245
20	0x3de322a1	0.11090589
21	0xbe4da76c	-0.20083398
22	0x3dfd606f	0.12371909
23	0xbd2041db	-0.039125305
24	0xbe15b435	-0.14619525
25	0x3dd4154d	0.10355625
26	0xbe6ca495	-0.23109658
27	0x3def0c99	0.11672325
28	0xbc2466d4	-0.010034282
29	0x3dbf6e44	0.093472034
30	0xbd92b7b5	-0.071639456
31	0x3e65beeb	0.2243611
32	0xbeb0ed1a	-0.34555894
33	0x3dc0a1ba	0.09405847
34	0x3d1c6ef0	0.038191736
35	0xbe21a482	-0.15785411

inception_2_conv_4_2.bias f4 [2]
0	0xbe276eae	-0.16350815
1	0x3e0d5053	0.13800173

bn_2.weight f4 [12]
0	0x3f48ad5c	0.78389525
1	0x3f50afc7	0.81518215
2	0x3f99b1cc	1.2007384
3	0x3f811cea	1.0086949
4	0x3f75d16d	0.96022683
5	0x3f8c7d5c	1.0975757
6	0x3f62957b	0.8850934
7	0x3f5e2c0e	0.8678597
8	0x3f6647ad	0.8995312
9	0x3f7cd62d	0.98764306
10	0x3f81d1bd	1.0142132
11	0x3f8d5e45	1.1044394

bn_2.bias f4 [12]
0	0x3e8f45b4	0.27982867
1	0x3e6d8d5b	0.23198454
2	0x3cdeac9a	0.027181912
3	0x3dfc7496	0.123269245
4	0xbda750e6	-0.08169727
5	0x3e0e7959	0.13913478
6	0x3e0ca35a	0.13734189
7	0x3d481563	0.04884852
8	0x3da55eb9	0.080747075
9	0x3eaeb2ac	0.3412069
10	0x3eac86cf	0.336966
11	0xbda08cde	-0.07839368

bn_2.running_mean f4 [12]
0	0x3e05e3f6	0.13075241
1	0x3dff91e3	0.124789976
2	0x3d090248	0.03344944
3	0x3cb862fc	0.022508137
4	0x3cd4e6a8	0.025988892
5	0x3d08d318	0.03340444
6	0x3b02563f	0.0019887832
7	0x3d099e62	0.03359831
8	0x3d00e4ab	0.031468075
9	0x3dcc39fa	0.09971996
10	0x3cfa5101	0.030556204
11	0x3e1022b3	0.14075737

bn_2.running_var f4 [12]
0	0x3d48955b	0.04897056
1	0x3d41fec1	0.047362093
2	0x3c569122	0.013096126
3	0x3c53d2fb	0.01292872
4	0x3baf2453	0.0053449064
5	0x3c497409	0.012295731
6	0x39fc6b24	0.00048145012
7	0x3c3d954c	0.01157124
8	0x3bc4e9af	0.0060093026
9	0x3ce4d83d	0.027935142
10	0x3c665603	0.014058593
11	0x3d022b75	0.031779725

conv_1.weight f4 [16, 12, 5, 5]
0	0xbd3c2d1f	-0.04594147
1	0x3db488e1	0.0881517
2	0x3cffa934	0.031208612
3	0x3d85354b	0.065043055
4	0x3d73b1bd	0.059495676
5	0x3cfa6725	0.030566761
6	0x3c36a43d	0.011147556
7	0x3bf691df	0.0075247134
8	0xbcc6fef7	-0.024291499
9	0x3d387ddb	0.0450419
10	0x3d5d8405	0.05408098
11	0x3cc10030	0.02355966
12	0x3cf61f9b	0.030044368
13	0x3cc2d93f	0.023785232
14	0x3a9b7b8c	0.0011862381
15	0x3dd3f7e9	0.103500195
16	0x3d54e21a	0.05197344
17	0x3bee2706	0.0072678356
18	0xbd48de95	-0.049040396
19	0x3d2a5ecf	0.041594323
20	0xbb191373	-0.002335754
21	0x3d82af45	0.06381086
22	0x3c07ee61	0.00829658
23	0xbe785ac0	-0.24253368
24	0xbceb83e2	-0.02874941
25	0xbe0a0608	-0.13478863
26	0xbe0ba923	-0.1363874
27	0xbc72407f	-0.014785885
28	0xbd0aca98	-0.033884615
29	0xbcff5317	-0.03116755
30	0xbdae355b	-0.085062705
31	0xb981ab2f	-0.0002473234
32	0xbcd9932c	-0.026559435
33	0xbcc84e71	-0.024451466
34	0xbc903d86	-0.017607462
35	0xbc0b156e	-0.008488996
36	0x3c02c401	0.007981301
37	0x3d1bbeac	0.038023636
38	0x3dbdeda5	0.09273843
39	0xbcb97598	-0.02263908
40	0xbd5160b5	-0.051117618
41	0xbce33c66	-0.027738761
42	0x3cfdfcd7	0.031004352
43	0x3c3de127	0.011589325
44	0xbd2e3dfa	-0.042539574
45	0x3da35140	0.079744816
46	0x3c08a6df	0.008340566
47	0x3db06e44	0.086147815
48	0x3d57a9ed	0.05265229
49	0xbccfdd3b	-0.025374046
50	0xbd994ca0	-0.07485318
51	0xbce8917d	-0.028389687
52	0xbcc2a29e	-0.023759183
53	0x3d2bae7a	0.04191444
54	0xbd99e211	-0.07513822
55	0xbe1ea822	-0.15493825
56	0x3d03687e	0.032082073
57	0xbd553639	-0.052053664
58	0xbd7f1a81	-0.062281135
59	0x3d2fe604	0.04294397
60	0xbdefebde	-0.1171491
61	0xbd9b5a45	-0.07585577
62	0x3e06f6db	0.13180105
63	0xbd5fa8f2	-0.05460448
64	0x3dbb11e3	0.09134271
65	0xbc9c0429	-0.019044952
66	0x3dbdd3e5	0.09268931
67	0x3bf77a67	0.0075524333
68	0xbc4d9e70	-0.0125499815
69	0xbc61aa3f	-0.0137735
70	0x3d90b489	0.07065684
71	0x3d7c32ee	0.061572008
72	0x3eb3f74e	0.35149616
73	0x3c2683fc	0.010163303
74	0x3e3a6a02	0.18204501
75	0xbdc7c190	-0.09753716
76	0xbd6cad96	-0.057782732
77	0xbc980138	-0.018555269
78	0xbd03adb0	-0.032148063
79	0xbdf8ed99	-0.12154693
80	0xbe27bb4c	-0.16380042
81	0xbd664e24	-0.056226864
82	0x3cf0e125	0.029404232
83	0x3c25758b	0.010098825
84	0xbd8af4bb	-0.0678496
85	0xbd693c5a	-0.05694232
86	0xbe2b7a7f	-0.16745947
87	0xbd97beb1	-0.074094184
88	0xbcb4423e	-0.022004243
89	0xbdd36a41	-0.10323001
90	0xbc2f14ee	-0.010686142
91	0xbd15fdd5	-0.036619026
92	0x3d15f0dc	0.036606655
93	0xbdb8463a	-0.0899777
94	0xbdd5549a	-0.10416527
95	0xbe3514e2	-0.17683747
96	0xbaaafcbe	-0.0013045294
97	0xbe0a791f	-0.13522767
98	0x3c840252	0.016114388
99	0xbe033f46	-0.12817106
100	0x3e0bc6d1	0.13650061
101	0x3cb2179f	0.021739779
102	0xb9e8a47f	-0.00044373047
103	0x3dc58390	0.09644234
104	0xbd40f555	-0.047108967
105	0x3df6ac47	0.12044578
106	0x3c4e387f	0.012586712
107	0x3cc5c8d6	0.024143618
108	0x3e298fc0	0.16558743
109	0xbdbad776	-0.09123127
110	0x3d8dc0dd	0.069215514
111	0x3dc4adfe	0.09603499
112	0xbe113799	-0.14181365
113	0x3de4d734	0.11173859
114	0xbdb95f7d	-0.09051416
115	0x3daddb5c	0.08489105
116	0x3e33ccda	0.17558613
117	0xbe046597	-0.12929378
118	0x3e1362a8	0.14393103
119	0x3e0263ef	0.12733434
120	0x3d87afd5	0.06625334
121	0x3dc52436	0.09626047
122	0xbe868b84	-0.26278317
123	0x3e55b867	0.20871125
124	0x3d060d9b	0.03272782
125	0xbe4bc551	-0.19899489
126	0xbd9cb531	-0.07651747
127	0xbd55b128	-0.052170902
128	0xbe1c8209	-0.1528398
129	0x3b2be0c9	0.0026226512
130	0xbcf04616	-0.029330295
131	0xbc9c7a37	-0.019101245
132	0xbd4ab7da	-0.04949174
133	0x3db8112c	0.0898765
134	0x3cefc599	0.029269027
135	0x3bfd1fbd	0.0077247308
136	0x3d8029d8	0.06257981
137	0xbdb82d48	-0.08993012
138	0x3de6b8c0	0.11265707
139	0x3c6584a7	0.014008678
140	0x3d554cb1	0.05207509
141	0xbc527761	-0.012845845
142	0x3e2e27cb	0.17007367
143	0x3d57f85c	0.05272709
144	0x3d9e0774	0.07716265
145	0x3dc98cdc	0.0984132
146	0x3df4f1b9	0.119601674
147	0x3d928de7	0.07155972
148	0x3e300108	0.17187893
149	0xbc1993d4	-0.009373624
150	0xbda4f719	-0.08054943
151	0xbe3af960	-0.18259192
152	0xbda12e44	-0.078701526
153	0xbe1aa013	-0.15100126
154	0xbe240758	-0.16018426
155	0xbb4a84bd	-0.0030901872
156	0xbcd7c37e	-0.026338335
157	0xbe3be538	-0.18349159
158	0x3e0adb50	0.13560224
159	0x3cbaefcb	0.02281942
160	0xbc810a75	-0.015752057
161	0x3cd916e3	0.026500171
162	0x3d32603a	0.0435488
163	0x3d051b47	0.032496717
164	0x3ca17fe3	0.019714301
165	0x3cff6d16	0.031179946
166	0xbdc74506	-0.09729962
167	0x3d49cc0f	0.04926687
168	0x3e121e34	0.14269334
169	0xbd5c40d6	-0.05377277
170	0xbd6de7b5	-0.0580823
171	0xbde7298e	-0.11287223
172	0xbd1e5812	-0.03865821
173	0x3be7f956	0.0070792837
174	0x3e8aab9c	0.27084053
175	0xbcc03888	-0.023464456
176	0xbcfd71f3	-0.030938124
177	0xbda93e6d	-0.0826386
178	0x3d1f0c53	0.038830113
179	0x3cd98df5	0.026556948
180	0x3c5482b0	0.012970611
181	0xba363422	-0.00069505174
182	0xbd26dd12	-0.040738173
183	0xbb671b4b	-0.003526407
184	0x3d8c6ab2	0.06856288
185	0x3ba40f6f	0.0050067226
186	0x3d73bbd6	0.059505306
187	0x3d37ae4a	0.04484395
188	0x3d6e4755	0.058173496
189	0x3db62a0a	0.08894737
190	0xbc6f5434	-0.014607478
191	0xbd34ec16	-0.04417046
192	0xbd0c4a4f	-0.034250554
193	0x3e0da5c6	0.13832769
194	0x3e013505	0.12617882
195	0xbd6fbb41	-0.05852819
196	0xbc46969b	-0.012120868
197	0xbdc8354c	-0.097757906
198	0xbbcc7741	-0.006239802
199	0xbcfd7440	-0.030939221
200	0xbc2a8cc5	-0.010409539
201	0xbd769c95	-0.060207922
202	0xbdfa0f9a	-0.12210007
203	0xbd05cf8c	-0.032668635
204	0x3b81aa2a	0.0039570527
205	0x3d6e34be	0.058155768
206	0x3b557940	0.0032573491
207	0xbd677484	-0.056507602
208	0xbcebc6dc	-0.028781347
209	0x3ca806e6	0.020511102
210	0xbc4818e4	-0.012212966
211	0x3c8b98ce	0.017040636
212	0xbe125626	-0.14290676
213	0xbd440e03	-0.047864925
214	0xbccf5dc8	-0.025313273
215	0x3c20ddf3	0.009818542
216	0x3df5f1a1	0.12008978
217	0xbda325c8	-0.079661906
218	0xbd7aadaf	-0.061200794
219	0x3da37223	0.07980754
220	0x3d79db20	0.06099999
221	0xbc7fc181	-0.0156101
222	0xbe014b26	-0.12626323
223	0xbda41d9a	-0.080134585
224	0x3dacfd3a	0.08446737
225	0xbe006358	-0.12537897
226	0xbe0b5915	-0.13608201
227	0xbd8ab9ca	-0.06773718
228	0xbd3ff62d	-0.04686563
229	0xbd474f46	-0.048659585
230	0xbdd748dd	-0.105119444
231	0xbd9988de	-0.074968085
232	0xbaae04f0	-0.0013276618
233	0xbd906f65	-0.07052497
234	0xbd016fb0	-0.031600654
235	0x3cc63051	0.024192961
236	0x3c82c01f	0.015960751
237	0x3d511fa6	0.051055573
238	0x3c2965a4	0.010339174
239	0xbb34e1d6	-0.002760043
240	0x3d578cdb	0.052624565
241	0x3e390a6b	0.1807038
242	0x3e1f3bae	0.1555011
243	0x3dc14207	0.09436422
244	0x3d09491f	0.033517
245	0x3ceb64e8	0.02873464
246	0x3dbea2ee	0.0930842
247	0x3d1e7492	0.03868539
248	0x3e0da1a3	0.13831191
249	0xbd603a2b	-0.054742973
250	0xbd00fe7d	-0.0314927
251	0xbd9b8a8b	-0.07594784
252	0xbdd10abd	-0.10207126
253	0xbe8c028b	-0.2734569
254	0xbe82fc32	-0.25583035
255	0xbdc8fb06	-0.09813504

conv_1.bias f4 [16]
0	0xbd9119b7	-0.07084983
1	0xbce4059e	-0.02783471
2	0xbd90de2c	-0.07073626
3	0xbe395013	-0.18096952
4	0xbe205adb	-0.15659659
5	0xbdfbd0ab	-0.1229566
6	0xbe1a8592	-0.15090016
7	0x3c04c46a	0.008103469
8	0xbe149960	-0.14511633
9	0xbe53695f	-0.20645665
10	0xbe0cd382	-0.13752559
11	0xbcea8e0d	-0.028632188
12	0xbdf06eed	-0.117399074
13	0xbc5c814c	-0.013458561
14	0xbe781f9e	-0.24230811
15	0xbd923ec4	-0.07140878

bn_3.weight f4 [16]
0	0x3f71321f	0.94217104
1	0x3f6f39d0	0.9344759
2	0x3f6116c3	0.87925357
3	0x3f755f6a	0.95848715
4	0x3f60b8ec	0.8778217
5	0x3f682aa5	0.9069007
6	0x3f59bded	0.8505543
7	0x3f74d39b	0.95635384
8	0x3f58232a	0.84428656
9	0x3f6732ac	0.90311694
10	0x3f672da3	0.9030401
11	0x3f50db32	0.81584466
12	0x3f582541	0.84431845
13	0x3f66807f	0.9003982
14	0x3f67866d	0.9043949
15	0x3f7bcd10	0.98359776

bn_3.bias f4 [16]
0	0x3df24e70	0.11831367
1	0xbd9e842e	-0.07740055
2	0xbe9cfdce	-0.30662388
3	0x3b7877d7	0.0037913227
4	0xbe570d9b	-0.21001284
5	0x3d2fad30	0.042889774
6	0xbef65e7e	-0.48118967
7	0xbdf4e1ad	-0.11957107
8	0xbefc98a5	-0.4933521
9	0x3e424198	0.18970335
10	0xbe3aa74b	-0.1822788
11	0xbf51941a	-0.8186661
12	0x3c76ad26	0.01505593
13	0x3e5e13dc	0.21687263
14	0xbe20b20a	-0.15692917
15	0x3daa27f6	0.08308403

bn_3.running_mean f4 [16]
0	0x3e7f4e13	0.24932127
1	0x3e85bc22	0.26120096
2	0x3e6cd760	0.23129034
3	0x3e1d33c4	0.15351778
4	0x3e17b9c1	0.14816953
5	0x3e02873f	0.12746905
6	0x3eafc294	0.3432814
7	0x3e1e78d2	0.15475777
8	0x3e65b7c3	0.22433381
9	0x3ef2cd4a	0.47422248
10	0x3da4e930	0.080522895
11	0x3e42e78c	0.1903364
12	0x3ea3e3fe	0.32009882
13	0x3e766a5a	0.24064007
14	0x3f1430eb	0.5788714
15	0x3f2cb8fd	0.6746977

bn_3.running_var f4 [16]
0	0x3f25d38d	0.64775926
1	0x3ef1c232	0.47218472
2	0x3f268529	0.65046936
3	0x3e96b1c3	0.29432496
4	0x3ea91a12	0.33027703
5	0x3e5df824	0.2167669
6	0x3f8088eb	1.0041784
7	0x3e863f75	0.2622029
8	0x3ef19599	0.47184446
9	0x3fa645f8	1.2990103
10	0x3e247102	0.16058734
11	0x3ece26be	0.40263933
12	0x3f815086	1.0102699
13	0x3f223f67	0.63377994
14	0x40319e97	2.7753046
15	0x400f6baf	2.2409475

conv_2.weight f4 [16, 16, 5, 5]
0	0x3de3660f	0.111034505
1	0xbdc67dc5	-0.096919574
2	0xbe06240b	-0.13099687
3	0x3d07cf2f	0.03315657
4	0x3d9d3c3a	0.07677503
5	0x3af6ed15	0.0018838966
6	0xbd05b5e5	-0.03264417
7	0xbd782778	-0.060584515
8	0x3caccc24	0.021093436
9	0xbe0d020d	-0.13770314
10	0x3d290aa3	0.04126991
11	0x3d20c162	0.039246924
12	0xbd33754d	-0.04381304
13	0x3d84b47d	0.06479738
14	0xbcbf3bb5	-0.0233439
15	0xbda84df9	-0.08217997
16	0xbdfcef3a	-0.12350316
17	0x3ca29bbc	0.01984965
18	0xbd69ccd4	-0.057080105
19	0xbd825bf6	-0.063651964
20	0xbe30d295	-0.1726783
21	0xbe4b2984	-0.19840056
22	0xbe6232bd	-0.22089668
23	0xbe5cbc3b	-0.21556179
24	0xbe1e137c	-0.1543712
25	0xbcffae3c	-0.031211011
26	0xbd3b8b97	-0.04578742
27	0xbe24aa47	-0.1608058
28	0xbdc46fab	-0.095916115
29	0xbcfbd2f8	-0.030740246
30	0xbda1058c	-0.07862386
31	0xbe1424c4	-0.1446715
32	0xbdae76eb	-0.085187756
33	0x3d2596dc	0.040427074
34	0xbc893f1c	-0.016753726
35	0xbc9045ee	-0.01761147
36	0xbe383dbc	-0.179923
37	0xbdf3b6cf	-0.11900102
38	0xbdf97986	-0.12181382
39	0xbdad50e1	-0.08462692
40	0xbd65d559	-0.056111667
41	0x3c9137d7	0.017726822
42	0xbe84a444	-0.25906575
43	0xbe5e1f51	-0.21691634
44	0xbe5acdbd	-0.21367545
45	0xbcd82137	-0.026383026
46	0xbdbebd9b	-0.09313508
47	0xbdd8a8cd	-0.10579071
48	0xbddc0836	-0.107437536
49	0xbdd8f204	-0.10593036
50	0x3e3c7738	0.18404853
51	0x3d491822	0.04909528
52	0xbd0327f9	-0.032020543
53	0x3c13dff7	0.009025565
54	0x3dc8508c	0.09780988
55	0x3d3de7f8	0.0463638
56	0xbcf757c3	-0.030193215
57	0x3c0f18a6	0.008733904
58	0xbdefb466	-0.1170433
59	0xbd7b4eac	-0.061354324
60	0x3d2a6b33	0.04160614
61	0x3ba2d0eb	0.0049687526
62	0xbcbb3eab	-0.02285703
63	0x3bd0a40b	0.0063672117
64	0x3d2ba14e	0.04190188
65	0x3e1ed2fb	0.1551017
66	0x3d7bb282	0.061449535
67	0x3d1ddd16	0.038540922
68	0x3d26a3dc	0.040683612
69	0xbd3501ab	-0.044191044
70	0x3c7451c0	0.014912069
71	0x3e35ff79	0.17773236
72	0x3ddf8a4f	0.10915052
73	0xbc27ca88	-0.010241158
74	0x3c32fb09	0.010924109
75	0xbc9d890d	-0.01923039
76	0xbd75bc93	-0.05999429
77	0x3a98f8c9	0.0011670823
78	0x3d5f72e0	0.054552913
79	0x3c6b264a	0.014352391
80	0x3da0ca94	0.07851139
81	0x3d9af064	0.07565382
82	0xbbc4473e	-0.005989938
83	0x3d06015d	0.032716144
84	0x3d82e50e	0.06391345
85	0x3c564784	0.013078574
86	0xbcb8be04	-0.022551544
87	0x3d25fd63	0.04052485
88	0x3da30159	0.079592414
89	0x3d2e6563	0.04257716
90	0xbd9bdc13	-0.07610335
91	0xbdbbf3e6	-0.09177379
92	0xbd69ffd4	-0.057128742
93	0xbe1bde46	-0.1522151
94	0xbc8799a7	-0.01655276
95	0x3d52bb8a	0.051448382
96	0xbcb1ced8	-0.021705076
97	0x3ce199f7	0.027539236
98	0x3df9a6d2	0.121900216
99	0x3dd2215e	0.102602705
100	0x3d4bd950	0.049767792
101	0x3cf1f3f9	0.02953528
102	0xbd70f62c	-0.058828518
103	0x3d32db44	0.04366614
104	0x3c791727	0.015203274
105	0xbbff6a0d	-0.0077946247
106	0x3ca4cfda	0.020118643
107	0x3d94cdfd	0.07265852
108	0x3dcb572a	0.099287346
109	0x3d4480c8	0.047974378
110	0xbdc967f8	-0.098342836
111	0xbd336ef8	-0.043807
112	0xbddbf425	-0.10739926
113	0xbd756018	-0.059906095
114	0xbdee643f	-0.11640214
115	0xbdd87ff1	-0.10571278
116	0x3c8177a1	0.015804114
117	0x3d99ba45	0.07506231
118	0xbcdb94af	-0.026804296
119	0xbd83af0b	-0.06429871
120	0xbdb003ce	-0.08594476
121	0xbbf8afb2	-0.007589304
122	0xbdaf1e26	-0.08550672
123	0x3d368276	0.04455801
124	0x3d180ff0	0.037124574
125	0xbe0ca1e5	-0.13733633
126	0xbdd3c2cd	-0.1033989
127	0x3d088714	0.033331946
128	0x3e07c01b	0.13256876
129	0x3d024f16	0.031813703
130	0xbdc3f8d3	-0.09568944
131	0xbc245fa9	-0.010032573
132	0x3db57912	0.08860983
133	0x3d701f83	0.058623802
134	0x3d72553a	0.05916331
135	0xbdece604	-0.115673095
136	0xbd85309f	-0.06503414
137	0xbd530c2f	-0.05152529
138	0xbddcd7f7	-0.107833795
139	0xbd979d45	-0.07403044
140	0xbdb42be5	-0.08797435
141	0xbd8e3b4e	-0.06944905
142	0xbdf473e0	-0.11936164
143	0xbda49d43	-0.08037808
144	0xbd38c1c7	-0.045106675
145	0xbe0d8b2b	-0.1382262
146	0xbe2c9284	-0.16852766
147	0xbde06f46	-0.10958724
148	0xbd147096	-0.036240183
149	0xbd980d77	-0.07424443
150	0xbd4f9616	-0.050680242
151	0xbd2921cf	-0.041292008
152	0x3da944a5	0.08265046
153	0xbb15609f	-0.0022793186
154	0x3ce71d32	0.028212164
155	0x3d3dbe41	0.04632402
156	0xbd4be6b4	-0.049780563
157	0xbd1fc17b	-0.039002877
158	0xbde758be	-0.11296223
159	0xbdb576ee	-0.08860575
160	0x3d2a59f3	0.04158969
161	0xbe174a73	-0.14774494
162	0x3d0a3220	0.03373921
163	0x3d8291bb	0.06375452
164	0x3d4aab6a	0.04947988
165	0xbe077cc9	-0.13231196
166	0xbe0be7a5	-0.13662584
167	0x3b5a7089	0.0033331236
168	0x3d406505	0.04697134
169	0xbd779a4d	-0.060449887
170	0xbe473274	-0.1945284
171	0xbda8944e	-0.08231412
172	0xbd1c8086	-0.038208507
173	0x3d361076	0.044449292
174	0x3d5002f2	0.05078406
175	0xbd865402	-0.06558992
176	0xbe239021	-0.1597295
177	0xbe0930bf	-0.13397501
178	0x3da750b7	0.08169692
179	0x3e38d438	0.18049705
180	0xbddcebc1	-0.10787154
181	0xbe02d01a	-0.12774697
182	0x3c3361d1	0.010948614
183	0x3dd584bc	0.10425708
184	0x3d914975	0.07094089
185	0x3db210bf	0.086946
186	0x3d4a510c	0.0493937
187	0xbd6ec042	-0.05828882
188	0x3dde592f	0.10856854
189	0x3d44559c	0.047933206
190	0x3dcb99a9	0.09941418
191	0x3dbbee43	0.09176304
192	0x3c1d5756	0.009603342
193	0xbd484cb7	-0.048901286
194	0x3dc0c8f9	0.094133325
195	0xbe06e6f8	-0.13174045
196	0xbbafeccc	-0.0053688046
197	0xbd2224d5	-0.039585907
198	0x3c479e27	0.012183703
199	0xbce1e476	-0.027574759
200	0x3d11dd2d	0.03561132
201	0x3ca77388	0.020440832
202	0x3cb16ba0	0.021657765
203	0x3dd1674a	0.10224779
204	0x3df6a0dc	0.120424
205	0x3cb67df8	0.022276863
206	0xbd697f86	-0.05700638
207	0x3d12a8de	0.035805576
208	0x3cfa0413	0.03051952
209	0xbd41343b	-0.04716895
210	0xbd12f1b8	-0.035875052
211	0xbde6956c	-0.11258969
212	0x3ce29559	0.027659105
213	0xbcd38301	-0.025819303
214	0x3d19a3de	0.03750979
215	0xbd16c552	-0.036809273
216	0xbdce0ce6	-0.10061054
217	0xbdc9c85c	-0.09852669
218	0xbd25054f	-0.040288266
219	0xbd1ab416	-0.0377694
220	0xbc2c97e7	-0.010534263
221	0x3c2b0d5f	0.0104402
222	0xbd4f4540	-0.05060315
223	0x3aafaee1	0.0013403558
224	0x3d777f41	0.060424093
225	0x3d64c7a1	0.055854443
226	0x3c472002	0.012153627
227	0xbd3e7945	-0.04650237
228	0xbe20b486	-0.15693864
229	0xbd450eb0	-0.04810971
230	0xbdbbabd7	-0.09163635
231	0xbe143ba5	-0.14475878
232	0xbe4906f7	-0.19631563
233	0xbe1d7873	-0.15377979
234	0xbe580611	-0.21096064
235	0xbe8c8a94	-0.27449477
236	0xbe2d964c	-0.16951865
237	0xbe81d2ea	-0.25356227
238	0xbe5a875c	-0.21340698
239	0xbe2a5db3	-0.16637306
240	0xbe8959c5	-0.268263
241	0xbe17cce6	-0.14824256
242	0xbe3912a7	-0.18073522
243	0xbdcbd7cc	-0.09953269
244	0xbc63f978	-0.013914458
245	0xbe330685	-0.17482956
246	0xbdab562f	-0.083660476
247	0xbdcb602c	-0.09930453
248	0xbe006210	-0.12537408
249	0xbd653060	-0.055954337
250	0xbe215a14	-0.15757018
251	0xbe1b2117	-0.15149342
252	0xbd6abbea	-0.057308115
253	0xbd5be132	-0.05368156
254	0xbdac3fdb	-0.08410617
255	0x3db66829	0.08906586

conv_2.bias f4 [16]
0	0xbe438629	-0.19094147
1	0xbe755395	-0.23957665
2	0xbe6c0266	-0.2304779
3	0xbdd09ba8	-0.10185939
4	0xbe8827e2	-0.26592928
5	0xbea38bd6	-0.31942624
6	0xbe7bf6a0	-0.24605799
7	0xbe976e99	-0.29576567
8	0xbf0ee0a5	-0.5581153
9	0xbe13483d	-0.14383025
10	0xbea09f51	-0.3137155
11	0xbe72f104	-0.23724753
12	0xbebd9814	-0.3703009
13	0xbeb27a31	-0.3485885
14	0xbe5b05fa	-0.21388999
15	0xbe85c3e8	-0.26126027

fc1.weight f4 [16, 1024]
0	0xbd8b677e	-0.06806849
1	0xbcf05ba1	-0.029340567
2	0x3d8ec1c3	0.06970551
3	0x3a964f19	0.0011467665
4	0xbcf92a20	-0.030415595
5	0x3ce06a49	0.02739443
6	0xbdab25e9	-0.0835684
7	0xbd669675	-0.05629583
8	0xbd9d67be	-0.07685803
9	0x3cfa6b6f	0.030568806
10	0x3de910fa	0.11380191
11	0xbc8ca9a3	-0.017170733
12	0x3ca38a29	0.01996334
13	0x3dadfdf5	0.08495704
14	0x3d9908e9	0.074724026
15	0xbd6c3690	-0.057669222
16	0xbc7ebd56	-0.015548071
17	0xbda7dde6	-0.08196621
18	0xbc7165cc	-0.014733743
19	0x3c9781a7	0.01849444
20	0xbd4e08d6	-0.050301395
21	0xbd98ca6f	-0.07460486
22	0xbd79f31d	-0.061022867
23	0x3d8b7e93	0.068112515
24	0xbd9fa48d	-0.077950574
25	0x3befe6ff	0.007321238
26	0xbc64b256	-0.013958534
27	0x3d2c44c8	0.042057782
28	0xbbedf893	-0.0072622984
29	0xbd347597	-0.044057455
30	0xbdf348b5	-0.11879102
31	0xbd5e5525	-0.05428042
32	0xbc84ac6a	-0.016195495
33	0xbd040bac	-0.032237694
34	0xbd9290a9	-0.07156498
35	0x3da09a17	0.0784189
36	0x3d74e6cd	0.05979042
37	0x3ddf07c5	0.10890154
38	0x3d3a4c4f	0.04548293
39	0xbd21d4cb	-0.039509576
40	0xbd8d1732	-0.0688919
41	0xbb6ed284	-0.0036441395
42	0x3bc5708f	0.006025381
43	0x3df70d67	0.12063103
44	0x3db93e71	0.09045113
45	0x3dba2c6c	0.09090504
46	0x3d7144db	0.058903556
47	0xbd0c5bfc	-0.03426741
48	0xbcb6d8ec	-0.022320233
49	0xbd2a0f71	-0.041518632
50	0xbca62e62	-0.020285789
51	0x3d4154ba	0.047199942
52	0xbc51d73f	-0.012807666
53	0x3ced45a8	0.028963879
54	0xbc8c5b40	-0.017133355
55	0x3d8638c9	0.065538
56	0x3d6909d6	0.056894146
57	0xbe316e0c	-0.17327136
58	0xbd40ca9c	-0.047068223
59	0x3cab571e	0.020915564
60	0xbe055204	-0.13019568
61	0xbdfa60db	-0.12225505
62	0xbddf6292	-0.10907473
63	0xbe1efcd1	-0.1552613
64	0x3d91f661	0.07127071
65	0xbc30e076	-0.010795703
66	0x3c8b2a7c	0.016988032
67	0xbc96b888	-0.018398538
68	0xbda703ac	-0.08154997
69	0x3d30e1b7	0.04318401
70	0x3dc0fa15	0.09422699
71	0x3cf619b6	0.030041557
72	0x3e02e88a	0.12784019
73	0x3cdeb8b7	0.027187688
74	0x3d5a7874	0.05333753
75	0xbd021e7c	-0.031767353
76	0x3dfeb078	0.124360025
77	0x3a746eac	0.0009324353
78	0xbdc6130a	-0.096716
79	0xbd06bc61	-0.032894496
80	0xbd291c33	-0.04128666
81	0xbd1b0556	-0.037846886
82	0xbde5ad68	-0.11214715
83	0xbe250d31	-0.16118313
84	0xbe248b53	-0.16068773
85	0xbe07ee01	-0.13274385
86	0x3e19ff65	0.15038832
87	0xbdb544f1	-0.0885104
88	0xbd237f9e	-0.039916627
89	0x3d24d3c9	0.040241037
90	0xbd115e19	-0.03549013
91	0xbdfdd104	-0.12393382
92	0xbd8544ed	-0.06507287
93	0xbd38c0da	-0.045105793
94	0xbd724f25	-0.05915751
95	0xbd8bfa0a	-0.068348005
96	0x3d25639c	0.040378198
97	0xbd4593b7	-0.048236575
98	0xbd19fb7c	-0.03759335
99	0xbdbe31a2	-0.092868105
100	0x3d62240b	0.055210155
101	0xbd10c524	-0.035344258
102	0xbc26d84d	-0.010183406
103	0x3d11b3e3	0.035571944
104	0x3d550e2d	0.052015472
105	0xbd9b6ed2	-0.07589497
106	0xbe05fdf3	-0.13085155
107	0xbe398500	-0.18117142
108	0xbe414f65	-0.18877943
109	0xbe7e3457	-0.24824654
110	0xbcf1890d	-0.029484296
111	0x3c48e5f3	0.012261855
112	0x3d155cf5	0.036465604
113	0xbdd5fb89	-0.10448367
114	0xbd95a6a4	-0.07307175
115	0xbe3555c1	-0.17708494
116	0xbe008a26	-0.125527
117	0xbd9e0ec9	-0.07717664
118	0x3c703b21	0.014662535
119	0x3ce23756	0.027614277
120	0x3d821a67	0.06352692
121	0x3c31cfb8	0.010852747
122	0x3cb85750	0.022502571
123	0x3d9ae101	0.07562447
124	0x3ddc1fdc	0.10748264
125	0x3d1f56df	0.038901206
126	0x3cba582d	0.022747124
127	0x3d02a6cc	0.03189735
128	0xbd04f7e6	-0.032462977
129	0xbd388cad	-0.045056034
130	0xbd2daead	-0.042402912
131	0x3d2e85b0	0.042607963
132	0xbcb4f506	-0.022089493
133	0x3c83fc95	0.016111651
134	0xbdcaf349	-0.09909684
135	0xbd8bb2f0	-0.06821239
136	0xbd9d72d6	-0.07687919
137	0x3d472423	0.048618447
138	0xbcd8a7b4	-0.026447155
139	0xbd69fdc9	-0.057126794
140	0x3d72df1d	0.05929481
141	0x3d443705	0.047904033
142	0xbdc84e92	-0.09780611
143	0x3b14dbf3	0.0022714108
144	0xbd97ed03	-0.07418253
145	0xbc872f4f	-0.01650205
146	0xbca55d65	-0.020186136
147	0x3d88f627	0.06687575
148	0x3c64b556	0.0139592495
149	0x3d3e89f2	0.046518274
150	0x3cdfbf35	0.027312854
151	0xbcb5ab64	-0.022176452
152	0xbd92efe7	-0.07174664
153	0xbe2c5677	-0.16829859
154	0x3da77d1b	0.08178159
155	0x3d97e95f	0.07417559
156	0xbe0b3edd	-0.13598199
157	0x3d22c503	0.039738666
158	0xbd79e4b5	-0.061009128
159	0x3b881bab	0.004153689
160	0xbdc182bc	-0.09448764
161	0xbe2e21cf	-0.17005084
162	0xbd3c62fd	-0.04599284
163	0x3d5b7d97	0.05358657
164	0xbd9c4686	-0.07630639
165	0xbd42eef4	-0.047591165
166	0xbc54df52	-0.012992697
167	0xbd9b34f9	-0.07578463
168	0xbd781f4f	-0.060576733
169	0xbd66c307	-0.056338336
170	0x3da01d65	0.078181066
171	0x3defaa19	0.117023654
172	0x3e11ceca	0.1423904
173	0x3e51c4f1	0.20485283
174	0xbd75ad44	-0.059979692
175	0xbd3ad40f	-0.04561239
176	0x3b45d818	0.0030188616
177	0xbc478383	-0.012177351
178	0xbdf52e88	-0.11971766
179	0x3e4a377d	0.1974773
180	0x3cc606c0	0.02417314
181	0x3de4abd7	0.11165588
182	0x3d2dd4cc	0.042439267
183	0x3d402566	0.046910666
184	0xbd43a8ea	-0.04776851
185	0xbd93f2a4	-0.072240144
186	0x3c34ad8e	0.011027707
187	0xbd96bd09	-0.07360274
188	0xbdede575	-0.11616031
189	0xbdcb67cf	-0.09931909
190	0x3e039d2d	0.12852927
191	0x3d57610b	0.05258278
192	0x3c41530e	0.011799587
193	0x3d25d3be	0.040485136
194	0x3be550c3	0.006998153
195	0x3da636bf	0.08115911
196	0x3dcc64fa	0.09980197
197	0xbbdb4ca0	-0.006692484
198	0x3c6494a6	0.013951456
199	0x3c957ce3	0.018248027
200	0xbc0c5d51	-0.00856717
201	0xbd5f2459	-0.054478023
202	0xbd2defc2	-0.04246498
203	0xbc9d6712	-0.019214187
204	0xbc683ced	-0.014174682
205	0xbd3c9c9f	-0.046047803
206	0x3d94dd59	0.07268781
207	0xbd818188	-0.06323534
208	0x3cc21f18	0.023696467
209	0xbd817d0a	-0.063226774
210	0xbd56aa10	-0.052408278
211	0xbd9e91c8	-0.07742649
212	0xbc1fef37	-0.009761623
213	0xbdd96ffa	-0.10617061
214	0xbb30b165	-0.0026961204
215	0xbd3c024b	-0.045900624
216	0x3cf8d577	0.030375225
217	0xbbaf9fd1	-0.005359628
218	0xbe41113d	-0.18854232
219	0xbe8bebcc	-0.27328336
220	0xbd5d6429	-0.0540506
221	0xbe508cc9	-0.20366205
222	0x3d71cc32	0.059032626
223	0x3c468753	0.012117225
224	0xbc985bf0	-0.018598527
225	0xbc753fc4	-0.014968816
226	0xbd9cd431	-0.0765766
227	0xbdd3d8ab	-0.103440605
228	0x3bd15ff2	0.0063896114
229	0x3d44ce85	0.048048515
230	0x3c2af2b5	0.010433842
231	0xbd4afcac	-0.049557373
232	0xbc68d6af	-0.014211341
233	0x3d89898f	0.0671569
234	0xbda7155f	-0.08158373
235	0xbdaa2de4	-0.08309534
236	0xbd73207f	-0.059357163
237	0xbcd5a9ce	-0.026081946
238	0xbc60e8c7	-0.013727373
239	0xbdf363fd	-0.118843056
240	0xbd672748	-0.056433946
241	0x3c7b69ba	0.015345031
242	0x3db3ef9f	0.087859385
243	0x3e12c479	0.14332761
244	0x3e11a731	0.14223935
245	0x3bdba1ea	0.0067026513
246	0xbcd641d9	-0.026154445
247	0x3cd9c2e9	0.026582198
248	0x3cde00c0	0.027099967
249	0x3c82d6cf	0.01597157
250	0x3d4c80da	0.04992757
251	0x3d2ca0a7	0.042145398
252	0xbc0eb9d7	-0.0087113
253	0x3d48a583	0.04898597
254	0x3c7427a8	0.014902033
255	0xbd1edff0	-0.038787782

fc1.bias f4 [16]
0	0xbd1c6430	-0.038181484
1	0xbd0cf720	-0.034415364
2	0xbd345280	-0.04402399
3	0xbd0849b5	-0.033273418
4	0x3a4ae4a9	0.00077397615
5	0xbd8432f8	-0.06455034
6	0xbcc119de	-0.023571905
7	0xbd05b0fb	-0.032639485
8	0xbd3f4c5d	-0.046703685
9	0xbd8bd756	-0.068281814
10	0xbd0d7759	-0.034537647
11	0xbbe6b6a1	-0.007040814
12	0xbbedc569	-0.007256199
13	0xbc54fc15	-0.012999554
14	0xbc829457	-0.015939875
15	0xbc98e156	-0.018662136

fc2.weight f4 [2, 16]
0	0xbdbf653b	-0.0934548
1	0xbd94cb91	-0.0726539
2	0xbdabc54d	-0.083872415
3	0x3e5f8e27	0.2183157
4	0x3dc39faa	0.09551938
5	0x3dcf51b3	0.10123005
6	0x3d82ffb9	0.063964315
7	0xb9ec5773	-0.00045078582
8	0xbda3dd7c	-0.08001229
9	0xbb478ab2	-0.003044766
10	0xbda5d4e7	-0.080972485
11	0x3d6e1206	0.058122657
12	0x3e13c8b9	0.14432038
13	0xbba92915	-0.005162368
14	0x3e20579d	0.15658422
15	0xbd89a501	-0.06720925
16	0xbe13805b	-0.14404432
17	0x3c3b8f0f	0.011447682
18	0xbae457c8	-0.001742118
19	0x3e299202	0.16559604
20	0x3e2a01d4	0.1660226
21	0x3c9f2995	0.019429008
22	0x3c86658d	0.016405845
23	0xbd958415	-0.07300583
24	0x3c2310cb	0.009952734
25	0xbd8acbe9	-0.06777174
26	0x3a1a9c2a	0.0005897904
27	0xbd0ccf8b	-0.034377616
28	0x3e43ba9e	0.19114158
29	0xbd8e6844	-0.06953481
30	0x3dc73baf	0.097281806
31	0x3c0e779f	0.008695512

fc2.bias f4 [2]
0	0xbdece0b9	-0.115663
1	0x3e1e6d44	0.15471369
